app/src/main/assets/U8-version-RFB-320_new.onnx (onnx, 495604 bytes, 209 tensors)

base_net.0.1.bias f4 [16]
000000 b0 5d 3b 3d d6 29 72 be 67 c1 df 3e de ce ef 3e
       0.045743644 -0.23648772 0.43702242 0.46837515
000010 71 43 f6 3e 40 41 c5 3e 7b 19 ad 3e a3 62 30 3f
       0.4809833 0.38526344 0.33808503 0.6890051
000020 f6 ca cf 3e fb 6c 17 3e 30 4c f7 3e a7 04 1f 3f
       0.40584534 0.14787666 0.48300314 0.62116474
000030 65 c0 89 3e 54 fe 2b 3f 49 ac d9 3e 95 63 ec 3e
       0.26904598 0.6718495 0.42514256 0.46169725

base_net.0.1.running_mean f4 [16]
000000 7d 12 41 be 76 88 45 3e 6d 85 aa bb 3a 60 06 3c
       -0.18854709 0.19290337 -0.005203894 0.008201653
000010 b6 50 4e bc bc e6 66 be 27 3c 36 3e 3d 9b 54 bb
       -0.012592485 -0.22548956 0.17796384 -0.0032441162
000020 39 cb 87 bd 54 5b 71 3c df f5 89 3e ee 43 b5 bc
       -0.066305585 0.014731247 0.26945397 -0.022127118
000030 58 7a 84 3d 18 23 fe bb 07 2e c4 bc b1 6b af be
       0.06468648 -0.0077556483 -0.023947729 -0.3426185

base_net.0.1.running_var f4 [16]
000000 ee 0f b1 3f 17 28 eb 3e 67 c8 f4 3d 21 82 84 3d
       1.3832986 0.45929024 0.11952286 0.064701326
000010 eb cd 80 3d 83 c1 27 3f 74 7b 08 40 59 74 c7 3e
       0.06289276 0.6552965 2.132535 0.38955954
000020 e3 f0 49 3e d8 5c 92 3d bc b4 56 3f ef d9 cf 3e
       0.19720797 0.07146615 0.8386953 0.40595958
000030 d1 a8 b2 3f 13 3a bd 3e 4e 62 32 3e cc 00 af 3f
       1.3957769 0.3695837 0.17420313 1.3672118

base_net.0.1.weight f4 [16]
000000 3d ec 23 3f 84 00 09 3f 93 f0 5e 3e bb d2 ee 3d
       0.64032346 0.5351641 0.2177146 0.116612874
000010 8a 17 ff 3d 03 44 47 3e 49 04 68 3f 92 3c 22 3e
       0.124556616 0.19459538 0.9063154 0.15843418
000020 1a bb 26 3e 6d f8 81 3e bf 80 3b 3e e7 e7 18 3e
       0.16282311 0.25384846 0.18310831 0.14932214
000030 fe dc 27 3f 92 96 26 3e 33 19 9e 3e 04 f6 77 3e
       0.6557158 0.16268376 0.308786 0.24214941

base_net.1.1.bias f4 [16]
000000 59 0c 30 3e 74 7d f0 3d 78 0e 04 3d 47 cb 3e ba
       0.1719221 0.11742678 0.03224036 -0.00072782155
000010 f2 50 9f bc 95 a9 e9 3e 53 52 00 3f 56 3c 28 bd
       -0.019447777 0.45637193 0.50125617 -0.041073166
000020 2b 28 3c 3e 6a 2b 9b 3e db f4 fe 3e 55 93 f5 3e
       0.18374698 0.3030656 0.49796185 0.47963968
000030 13 ff 87 3e cc 83 39 bd 22 fe 96 3f cf b0 d0 3e
       0.26561794 -0.045291707 1.1796305 0.40759894

base_net.1.1.running_mean f4 [16]
000000 74 1e c2 3d 80 b8 45 3c f5 94 d1 3d 58 de 17 be
       0.09478465 0.012067914 0.102334894 -0.14830911
000010 7a 0f 08 be d0 dc 00 3e 79 19 3e be a4 fa 25 bf
       -0.13287154 0.12584233 -0.18564405 -0.6483557
000020 d5 97 31 bd dd 57 37 3d 4f 61 d4 bc b8 b7 fb be
       -0.04335769 0.044761527 -0.025925307 -0.49163604
000030 2c 49 19 3e ee e4 23 bf 5b 54 85 3d be ad ef 3d
       0.14969319 -0.64021194 0.0651023 0.117030606

base_net.1.1.running_var f4 [16]
000000 2d b9 0f 3d 21 7e 2a 3c ab 63 22 3d 19 08 44 3c
       0.035088707 0.010406048 0.039645832 0.011964821
000010 bf d1 55 3c 74 4a c1 3c 15 f2 b8 3d 4f ef f8 3c
       0.013050496 0.023595072 0.090305485 0.030387549
000020 37 9b b3 3c e3 8b b2 3c f4 d0 89 3c c3 00 ca 3c
       0.021924598 0.021795219 0.01682327 0.024658566
000030 80 32 a0 3d 9d 96 fe 3c 78 8c 57 3d ba 86 86 3d
       0.07822132 0.031077677 0.052624196 0.06568666

base_net.1.1.weight f4 [16]
000000 aa 3c d9 3e ee 1d 97 3e 05 fa 14 3f a0 5f 0a 3f
       0.42429096 0.29515022 0.58194 0.5405216
000010 88 b0 0d 3f 1a 8f b9 3e cb b8 08 3f 4c 0f 4d 3f
       0.5534749 0.3624199 0.5340697 0.80101466
000020 e4 ba 2e 3f a8 d1 f1 3e da 4b e0 3e 10 3f 29 3f
       0.6825392 0.47230268 0.4380787 0.6611185
000030 b1 d4 d6 3e c0 70 49 3f 3b d3 ba 3e 87 b0 0a 3f
       0.41959146 0.7868767 0.3648928 0.5417561

base_net.1.4.bias f4 [32]
000000 36 43 27 3d 4f 84 6f 3e ae ad af 3e 2f 21 7d be
       0.04083558 0.23390315 0.34312195 -0.2471969
000010 d0 17 2d be 3b 35 b0 3c bf d5 39 3e de 33 1d bc
       -0.16903615 0.021509757 0.18147944 -0.009594886
000020 a3 c2 b4 3e 3d 3b 49 3c 76 ea 2e be eb 8c 5c 3e
       0.35304746 0.01228219 -0.17081627 0.21538131
000030 6a 2b 4a 3e 8d 45 a3 3e c0 90 d3 bc ed a8 40 be
       0.19743124 0.31889 -0.025825858 -0.1881444
000040 a6 37 af 3d 55 9f 28 bd 96 86 77 bd d9 59 ba 3e
       0.08555536 -0.041167576 -0.060431086 0.36396673
000050 63 2c c9 3d c6 a5 31 3e 53 79 dd bc c9 f8 f9 3d
       0.09822919 0.17348394 -0.027035391 0.12205655
000060 f1 87 4e be e7 bc cf be 59 2d 90 3e 6b 77 30 be
       -0.20169045 -0.4057381 0.28159598 -0.17233054
000070 b8 9e 9f 3e 02 11 90 bc f3 bd a4 3e e7 8e a7 3d
       0.3117578 -0.017586235 0.3217617 0.08181553

base_net.1.4.running_mean f4 [32]
000000 95 62 1a 3f c1 6c a2 be 24 1b 1b 3e 15 40 a9 bf
       0.60306674 -0.31723598 0.15147072 -1.3222681
000010 de cb 04 bf f6 50 72 3e 38 b6 69 3f 01 1c 06 be
       -0.51873577 0.23663697 0.9129367 -0.1309662
000020 45 b6 7f be c9 b3 aa be 10 b6 a7 be 19 90 c6 3e
       -0.24971874 -0.3334029 -0.3275609 0.38781813
000030 9c 83 d7 bd 0e 03 ec 3d dc d6 77 be d3 e7 8f be
       -0.10523149 0.1152402 -0.24203056 -0.28106555
000040 3a 79 01 3f 62 e5 a6 bf 42 41 3b bf bf b2 4a be
       0.505756 -1.3038752 -0.7314645 -0.19794749
000050 1a 6c 02 bf 5d 76 86 3e 49 a4 4b bd 31 e4 61 bd
       -0.509462 0.2626218 -0.04971722 -0.05514926
000060 9e 24 44 bf e8 4a c1 bd 6d c2 02 3e 85 6c e6 bd
       -0.76618373 -0.09438115 0.1276948 -0.11251167
000070 35 bf cb 3b f1 ec 21 bf 9b ab 39 be f3 9e f2 be
       0.006217862 -0.6325217 -0.18131869 -0.47386894

base_net.1.4.running_var f4 [32]
000000 e4 61 09 3e 33 fc 96 3d c0 ad ca 3d b1 45 4f 3e
       0.13416249 0.07372322 0.098964214 0.20241429
000010 53 97 8c 3e 76 c4 26 3e 30 1e 25 3e cb 80 32 3e
       0.274592 0.16285881 0.16124797 0.17431943
000020 2e 6b a2 3d 40 df d7 3e 2c 96 45 3e ad e1 9e 3d
       0.07930599 0.42162514 0.19295567 0.07757888
000030 c5 b0 eb 3d 83 39 df 3d c6 0e fd 3d f0 55 8c 3e
       0.115083255 0.10899641 0.123563334 0.27409315
000040 f7 5d 35 3e fc f8 39 3e d5 8c 4f 3e de 43 a8 3d
       0.17711626 0.18161386 0.20268567 0.0821607
000050 65 03 7c 3e e7 a2 91 3d 8f 94 12 3e 36 d6 3c 3e
       0.2461067 0.07111149 0.14314483 0.1844109
000060 63 b9 da 3e 6f 26 8c 3d 91 95 d5 3d 23 9f 50 3e
       0.42719564 0.06843268 0.10428918 0.20373206
000070 c8 30 dc 3d b6 8a 2d 3e 25 e5 b3 3d 45 ed 86 3e
       0.10751492 0.16947445 0.0878394 0.26352897

base_net.1.4.weight f4 [32]
000000 14 4e d3 3e 33 b8 2d 3e c1 2d 66 3e 2d fc 08 3f
       0.41270506 0.16964798 0.22478391 0.5350979
000010 b4 0b 04 3f fd 93 e2 3e c6 2b ba 3e e7 ba ed 3e
       0.5158036 0.4425353 0.3636152 0.46431658
000020 60 27 e1 3d 8d 07 04 3f b6 15 01 3f 01 a2 81 3e
       0.10993838 0.5157402 0.50423753 0.25318912
000030 64 71 97 3e d2 a6 8e 3e 7e a8 ac 3e 80 fa 0d 3f
       0.29578698 0.2786165 0.337223 0.5546036
000040 15 ac e7 3e 7e eb 0b 3f 7c e7 f5 3e 08 10 22 3e
       0.45248476 0.5465621 0.4802817 0.15826428
000050 0e b8 00 3f 75 02 1b 3e fa d5 e2 3e 0a 1f f5 3e
       0.50280845 0.15137656 0.44303876 0.47875243
000060 95 89 2a 3f 0e 0e a3 3e 6b 22 39 3e ce 54 fb 3e
       0.66616184 0.3184666 0.18079536 0.49088138
000070 30 98 89 3e 5f 78 f4 3e 45 ba 31 3e 30 3d cc 3e
       0.26873922 0.47748086 0.17356212 0.39890432

base_net.10.1.bias f4 [128]
000000 65 3a a1 3c 3e 33 52 bc a9 a8 29 be a0 e5 25 3e
       0.019681165 -0.0128296 -0.16568245 0.16200876
000010 25 fb 19 bd 21 2f fa bc d2 95 9f bc e1 5f b5 bc
       -0.037593026 -0.030540051 -0.01948062 -0.022140445
000020 0b a5 c2 bc 92 2b 82 3b f0 2b b2 bd ed 2a b0 3d
       -0.02376034 0.003972479 -0.08699787 0.086019374
000030 da 62 1a 3d f2 4d 5f 3d 3d 5e ec bc 92 31 00 bc
       0.03769193 0.054517694 -0.02885353 -0.0078243185
000040 a5 48 19 3e ba d3 1e bd 33 74 9a bc 6c a9 69 bd
       0.14969118 -0.038776137 -0.018854236 -0.05704634
000050 d5 65 d7 bc 2f e3 f1 3d 9f 81 1b bd 82 bc c2 bc
       -0.026293674 0.1181091 -0.037965413 -0.023771528
000060 c2 a5 ba ba c5 2f 30 3d 3b 97 e2 3d 76 a3 1b be
       -0.0014240074 0.043014307 0.11064001 -0.15199074
000070 05 12 7a bd 2c eb 8f bd 37 3d de 3d 0d 90 79 bd
       -0.06105234 -0.07027277 0.108515196 -0.060928393
000080 1b 5a 60 3b f2 c2 3b 3d bf 84 94 3c ee ee 0a 3e
       0.0034233395 0.04584021 0.018129705 0.13567707
000090 77 8c 2c 3d be c1 e6 3c a8 70 bc bc 94 f3 0c bd
       0.042126145 0.028168555 -0.023002937 -0.03441198
0000a0 c6 e2 b0 bc d7 73 81 3d 40 f8 7d 3b a6 b2 f5 3d
       -0.021592509 0.06320923 0.0038752705 0.11996965
0000b0 2d f8 c3 3d ae db e0 3c 3e 09 f5 3d 56 35 04 3b
       0.0956882 0.027448501 0.119646534 0.0020173392
0000c0 cd 95 e0 3d 5d ae 48 3d 9b 2b 7d bd 91 b2 c6 3c
       0.10966072 0.04899441 -0.061809164 0.024255069
0000d0 f0 fd 13 3e b7 e2 36 3d f9 e3 75 3c 63 98 86 bd
       0.14452338 0.044649806 0.015007966 -0.06572034
0000e0 e7 e4 34 3d 25 43 d4 3d e5 9e ca 3d df 22 46 3d
       0.04416361 0.10364369 0.09893588 0.0483731
0000f0 37 b0 56 bd 30 87 68 bd 60 84 3f 3d 69 c2 9b bd
       -0.052414145 -0.05676955 0.046757102 -0.0760544
000100 60 e5 65 3d a1 3e 25 bd c3 a7 ef 3c fb 1b 62 bd
       0.056126952 -0.04034293 0.0292548 -0.055202466
000110 17 17 ca bd d5 e5 1f 3a 25 63 eb bb dc f9 fe bd
       -0.09867685 0.00060996163 -0.00718345 -0.12450001
000120 ab 29 93 bb 40 ca b4 bd ff 08 2b bd dd 8c ba bc
       -0.004491051 -0.088276386 -0.041756626 -0.022772247
000130 80 84 05 bd 0d 4d 97 bd e8 67 6a bd b5 04 69 bc
       -0.032597065 -0.07387743 -0.057228 -0.014222314
000140 45 97 85 3c 06 26 72 bd 93 5d b8 3a ad fa 53 3c
       0.016307482 -0.059118293 0.0014065973 0.012938184
000150 03 03 ac 3d 36 76 72 bb 93 90 0e bd 23 da 23 3e
       0.08399012 -0.0036996729 -0.034805845 0.16001181
000160 f3 e1 f8 bc 43 20 a0 3c 83 f0 95 3c dc 1b 3e 3c
       -0.030381178 0.019546634 0.018303161 0.011603322
000170 4f 8e 60 bd 15 34 c3 3d af 5e 3f bd 9d b7 51 3b
       -0.054823216 0.09531418 -0.046721157 0.0032000311
000180 a2 59 a5 bd 23 31 ce 3d 41 4e 4f 3d de 9d 98 bc
       -0.08073737 0.10067966 0.050611738 -0.018629964
000190 d6 62 3f bc e1 59 fe bc 6e 38 00 3e cc e7 36 bb
       -0.011681279 -0.031048717 0.12521526 -0.0027909158
0001a0 87 34 1a 3c 12 70 49 3c 28 81 bb bc fb 5d e8 3c
       0.009411938 0.012294786 -0.022888735 0.028365126
0001b0 43 a9 b3 bc 5b 56 ab bc e1 28 9c bd f5 16 7d 3d
       -0.021931296 -0.020915201 -0.076249845 0.06178947
0001c0 ab 23 0f 3d 12 31 66 3b 1f 91 a2 bd da 79 75 3d
       0.034946125 0.0035124463 -0.07937836 0.05993066
0001d0 34 a8 3b 3d 7d 34 9d bd 51 22 2b 3d 8f a0 00 3d
       0.045814708 -0.07676027 0.041780774 0.03140312
0001e0 ca 21 57 bc 69 30 4e 3d 6d b3 c8 3d 88 c6 c3 3d
       -0.0131306145 0.050339136 0.09799848 0.09559351
0001f0 50 65 55 bd f3 90 db bb fa aa c2 3d b5 e7 e1 bd
       -0.052098572 -0.006700629 0.095052674 -0.11030523

base_net.10.1.running_mean f4 [128]
000000 e2 c6 ec ba 0f d6 02 3b c0 ea 96 3b 70 0c 22 bc
       -0.0018064643 0.0019964015 0.004605621 -0.009890661
000010 bc 0d 85 3b 2a 35 6c 3b f5 25 38 3b 95 d8 88 3b
       0.004060475 0.003604243 0.0028098796 0.004176209
000020 86 1c cf 3a ab 3e 23 3c 84 d5 62 3c 5c 3d 83 bc
       0.0015801347 0.009963672 0.013844851 -0.01602047
000030 55 56 93 3b 9e 7d 4e 3c cf f2 1f 3c 88 52 97 3b
       0.0044963756 0.012603192 0.00976248 0.004617993
000040 57 b2 7f bb 98 d2 c6 ba 18 1e 03 3b 9b b6 4a b9
       -0.003901621 -0.0015168963 0.002000695 -0.00019332247
000050 26 24 40 3a 0a 06 10 bc 6f 9f 86 3b 9e 24 db 3b
       0.0007329605 -0.008790502 0.0041083614 0.0066877147
000060 93 f2 89 3b 8c b1 b1 bb bf 3e 16 3b 79 eb b6 bc
       0.0042098253 -0.0054227766 0.0022925583 -0.022329079
000070 78 f4 59 bc c3 c1 51 3b dc 08 56 bb a7 a5 fe 3b
       -0.013302915 0.003200636 -0.003265909 0.007771212
000080 80 0c 47 3c f4 23 d5 3b 5d d5 9e 3c 2b 18 48 bb
       0.012148976 0.00650453 0.019388849 -0.0030531983
000090 1a b5 25 3c 14 15 be 3b 5d ea ca 3b bf 0a a1 3b
       0.010113979 0.0058008526 0.006192489 0.004914611
0000a0 39 6f 5c 3a 77 41 aa bb ba 88 c8 bb a1 a6 69 bc
       0.00084089075 -0.0051957923 -0.0061198147 -0.014260919
0000b0 83 79 8c bb 95 3f bb bc cf 38 19 bc c9 45 15 3c
       -0.0042869463 -0.022857467 -0.009351923 0.009110876
0000c0 5e 74 ae bb 5e cf 3e ba ee 81 7f 3c a7 5b c5 bc
       -0.0053239306 -0.0007278825 0.0155949425 -0.024091555
0000d0 4f 85 61 bc 5b 8c 98 bb a5 5a 9b 3b bc 9e 41 bb
       -0.013764693 -0.0046554036 0.0047410303 -0.0029544076
0000e0 3c b8 df 3b 70 7b 8b bc 16 69 23 bb 05 79 58 bb
       0.0068273824 -0.017026633 -0.0024934462 -0.0033031118
0000f0 33 8b 74 b9 25 5c 2a bc 0a 26 4c bc 93 d9 c8 3a
       -0.00023321509 -0.0103979455 -0.012460241 0.0015323631
000100 46 8b c5 3b d0 9d 31 ba 45 f0 cc bb c8 08 b2 39
       0.0060285656 -0.000677553 -0.0062542283 0.00033957348
000110 4f 6f a7 3a 0a 49 19 3c 59 4d 0d 3a c0 ea f7 3b
       0.0012774261 0.009355793 0.0005390249 0.007565826
000120 fc f1 82 ba 42 0c 25 3c ef 65 f5 ba 23 97 b4 3b
       -0.000999033 0.010073723 -0.0018722395 0.005511181
000130 58 1e c3 3a d8 a5 a2 3a 61 86 8c 3b 2e 1f da 3b
       0.0014886362 0.0012409044 0.00428848 0.006656549
000140 92 fc 85 3b 58 42 98 3b 2e f2 42 3b 48 17 6b 3c
       0.0040889466 0.0046465807 0.00297464 0.014348812
000150 a7 41 2d 3b 3c 14 5d 3b 01 6f 22 3c 21 2a cc 3a
       0.0026436837 0.0033733984 0.009914161 0.001557652
000160 bd 5f 72 bb 14 c8 03 3c 22 ae b1 3b bf 24 64 bb
       -0.0036983334 0.008043308 0.0054223696 -0.0034811941
000170 be a6 9f bb b8 9d b1 bc 1b f2 23 3c 33 21 d1 3b
       -0.004872172 -0.021681651 0.010006453 0.0063821315
000180 fa 12 0b 3d 08 8a 0c bb 42 86 00 39 cc 25 a5 3b
       0.033953644 -0.0021444578 0.00012257046 0.005039906
000190 6d 07 09 3c 80 70 15 3c 32 a7 ad bb ee 18 14 3c
       0.008363587 0.00912106 -0.0052994723 0.009039147
0001a0 fb a0 ba 3b 83 b8 9a 3b d4 c4 bc 3a 66 4a df 3b
       0.00569546 0.0047217025 0.0014401921 0.006814289
0001b0 f3 60 0b ba 04 09 54 3b b8 64 f5 3a f7 72 c8 bb
       -0.0005316876 0.0032354007 0.0018722033 -0.0061172205
0001c0 ee b9 55 3b a5 ff 00 3c e0 3a 0b 3b f5 df 9c bb
       0.0032612043 0.00787345 0.002124481 -0.00478744
0001d0 19 0e 92 3b ad 9d bd bb e3 9c 17 bc 62 75 3e 3b
       0.004457247 -0.0057866187 -0.009253713 0.0029061665
0001e0 9f 87 8d 3b d3 b2 02 bd 1c 67 1e bc 26 f4 98 bb
       0.004319146 -0.03190882 -0.009668138 -0.0046677766
0001f0 33 2e c8 3a 31 6b c3 b9 97 0c a5 ba 07 ab f8 3b
       0.0015272558 -0.00037273162 -0.0012592253 0.0075887474

base_net.10.1.running_var f4 [128]
000000 52 2c 91 39 e0 f2 2f 39 71 23 bd 38 0d 2c 4a 39
       0.00027689576 0.00016779779 9.018824e-05 0.00019280631
000010 23 e9 89 38 f1 fe d0 38 70 60 10 38 67 15 50 38
       6.576094e-05 9.9656994e-05 3.442209e-05 4.9610997e-05
000020 08 9e 39 38 f3 34 bd 38 59 b3 e1 39 23 9f 8b 39
       4.4254615e-05 9.022085e-05 0.0004304897 0.00026630712
000030 24 23 20 39 f8 d2 4b 39 c2 45 30 39 ae 4f 00 39
       0.0001527188 0.0001943818 0.00016810655 0.00012236714
000040 26 3c 8a 38 38 da 42 39 0b 3c a8 37 38 36 3a 39
       6.591556e-05 0.00018582575 2.005512e-05 0.0001775854
000050 f6 40 04 39 c0 53 39 39 a4 2e 48 39 c4 2b db 38
       0.00012612701 0.00017674174 0.00019090861 0.00010450886
000060 cc 8c 98 38 a9 5b 7d 39 15 37 e8 38 aa aa 8e 3a
       7.27415e-05 0.00024162106 0.00011072882 0.0010884602
000070 9c ad f4 39 4c 54 e5 38 4b b7 56 39 e4 0e 4c 39
       0.00046668656 0.000109352724 0.00020476912 0.00019460503
000080 ad 9a da 39 e4 3b 9b 38 e3 26 6c 39 77 58 df 38
       0.00041695443 7.4021315e-05 0.000225212 0.000106499465
000090 62 e2 bd 38 ae 30 2c 39 b8 fb 66 38 52 6e b1 38
       9.0543894e-05 0.00016421333 5.5070705e-05 8.4605665e-05
0000a0 b5 eb 0f 39 1b 06 95 38 0b f3 23 39 28 7b 24 39
       0.0001372535 7.106011e-05 0.00015635432 0.00015686138
0000b0 9f 27 ef 38 d8 a4 97 39 f0 2d 9c 39 82 b6 90 39
       0.00011403788 0.00028923783 0.00029788865 0.000276018
0000c0 2b bd 60 39 8a 87 cf 38 72 b6 aa 39 56 70 84 39
       0.00021432775 9.895775e-05 0.0003256086 0.000252607
0000d0 8e 63 2e 3a 09 64 8e 39 1b 70 8b 38 c9 47 bb 39
       0.0006652408 0.00027158883 6.648918e-05 0.00035720904
0000e0 0b 3f 97 38 be 2f 9f 39 f1 d6 ad 38 22 2d 86 39
       7.211984e-05 0.00030362414 8.289319e-05 0.00025592098
0000f0 35 03 59 38 e4 fe ea 39 16 f6 09 39 82 44 c0 39
       5.173982e-05 0.00044821866 0.00013157012 0.00036672136
000100 48 8c ae 38 a0 17 79 38 85 5f 8d 39 7d 49 d1 37
       8.323096e-05 5.938823e-05 0.00026964783 2.4948962e-05
000110 db cd 00 3a 62 8b b8 38 d5 22 e7 38 2b 3a 23 39
       0.00049134874 8.799766e-05 0.00011021426 0.0001556656
000120 87 ca 91 39 05 a6 80 39 1f 2e 3d 39 ef 8f 00 39
       0.0002780745 0.00024537757 0.00018041626 0.0001226065
000130 71 3f b1 38 13 31 cd 37 81 4c 6d 38 14 0c b4 38
       8.4518346e-05 2.4460756e-05 5.6576453e-05 8.5853186e-05
000140 15 2d a3 38 80 c7 98 38 69 ae a6 38 44 bd b9 38
       7.780843e-05 7.2850846e-05 7.947983e-05 8.856741e-05
000150 da 78 b3 38 f4 a2 87 38 d3 60 42 39 ac 5f cd 38
       8.5578955e-05 6.467654e-05 0.00018537352 9.792982e-05
000160 33 81 9e 38 11 40 33 39 ae d6 4b 39 aa 0e 5d 39
       7.558092e-05 0.00017094637 0.00019439563 0.00021081665
000170 5c d7 40 39 5a c4 29 3a f4 21 2e 39 77 6b a5 38
       0.00018390774 0.0006476097 0.00016606582 7.88783e-05
000180 e8 94 1e 3a df 26 a9 38 90 b1 ef 37 b7 92 8e 39
       0.00060494104 8.065788e-05 2.8573704e-05 0.00027193662
000190 a3 0b 94 39 9e 6d e4 38 e9 67 01 39 92 88 cf 38
       0.0002823743 0.00010892305 0.00012341108 9.8959674e-05
0001a0 ee ab 32 39 64 55 b9 38 1c e4 aa 38 3d 12 cf 38
       0.00017039452 8.837393e-05 8.1487204e-05 9.873926e-05
0001b0 41 42 40 37 45 c2 3b 38 60 57 f1 38 31 56 01 39
       1.1459518e-05 4.4765202e-05 0.000115080504 0.00012334507
0001c0 02 77 3d 38 21 94 74 39 10 63 8a 39 d9 9c 19 39
       4.5171946e-05 0.00023324836 0.00026395218 0.00014649647
0001d0 18 73 ad 38 e3 c7 2d 3a 03 44 c5 39 ab f2 1b 38
       8.270721e-05 0.0006629212 0.0003762544 3.7180882e-05
0001e0 f0 ff b9 38 52 b9 12 3a f9 28 ef 39 da 0f 5c 39
       8.8691595e-05 0.0005597073 0.0004561616 0.0002098674
0001f0 75 4c eb 38 61 ed e5 38 85 99 1b 38 10 35 0a 39
       0.000112199144 0.00010963786 3.7097856e-05 0.00013180473

base_net.10.1.weight f4 [128]
000000 38 43 0c 3e e0 69 0a 3e 5e f4 15 3e 39 06 1d 3e
       0.13697517 0.1351695 0.14644 0.15334405
000010 de 43 1c 3e 3a ee 0b 3e 13 58 00 3e 3d db ef 3d
       0.15260264 0.13665095 0.12533598 0.11711738
000020 f1 91 f1 3d 78 0a 1c 3e 59 31 10 3e 75 99 57 3e
       0.11795414 0.15238369 0.14081325 0.21054633
000030 76 be 08 3e 2d c2 11 3e b8 9e 25 3e 50 7a 04 3e
       0.13353905 0.14234228 0.16173828 0.12937284
000040 f7 c3 13 3e b0 63 0c 3e 60 cd 1a 3e ac 59 01 3e
       0.14430223 0.13709903 0.15117407 0.12631863
000050 c7 e3 2a 3e 1f 39 31 3e 20 31 eb 3d 1d fb 14 3e
       0.16688453 0.17306946 0.11483979 0.14548917
000060 68 7e 1f 3e f3 cf 19 3e 3d 7b 17 3e 97 d0 fa 3e
       0.15575564 0.15020733 0.14793105 0.48987266
000070 9b 57 35 3e 92 33 10 3e 79 cb 01 3e 0d 03 1b 3e
       0.177092 0.14082173 0.12675275 0.15137883
000080 ee 95 10 3e ca 5e fa 3d 0b dd f8 3d 79 f5 f2 3d
       0.14119694 0.12225111 0.121515356 0.118632264
000090 f9 2f 30 3e de 39 06 3e 31 17 05 3e 2d f4 db 3d
       0.172058 0.13108012 0.12997128 0.10739932
0000a0 53 8f 19 3e 48 2c 25 3e 07 11 1b 3e 5f f8 08 3e
       0.1499608 0.16130173 0.15143214 0.13375996
0000b0 5c 42 27 3e 30 29 2e 3e 21 7e 3f 3e 5f fc 05 3e
       0.16333908 0.170079 0.18700458 0.13084553
0000c0 a8 96 07 3e 9e a1 19 3e ac 09 17 3e 07 64 43 3e
       0.13241065 0.15003058 0.14749783 0.19081126
0000d0 86 d1 54 3e 7a d9 2c 3e 29 1d 21 3e d5 4b 44 3e
       0.20783052 0.16879836 0.1573378 0.19169553
0000e0 d1 99 0f 3e 07 77 26 3e aa 7c fb 3d 13 ef 03 3e
       0.1402352 0.16256343 0.12279637 0.12884168
0000f0 cd 09 07 3e 9c 65 42 3e 6a 01 15 3e 5a 3f 40 3e
       0.13187332 0.18984073 0.1455132 0.18774167
000100 1a 10 13 3e df e1 f7 3d 52 52 28 3e 71 e6 00 3e
       0.14361611 0.12103628 0.16437653 0.12587906
000110 1e 75 38 3e a3 41 22 3e da cd 0e 3e cf df 1c 3e
       0.18013427 0.15845351 0.13945714 0.15319751
000120 e5 61 18 3e 86 d1 21 3e 09 6e 18 3e 38 16 e3 3d
       0.14881094 0.15802583 0.14885725 0.11088222
000130 af 97 10 3e ab c3 eb 3d 58 e5 1d 3e c0 f8 02 3e
       0.14120363 0.1151193 0.15419519 0.12790203
000140 14 0b 01 3e cb 87 e2 3d 59 e4 f4 3d 40 90 17 3e
       0.12601882 0.11061057 0.11957616 0.14801121
000150 c3 87 f1 3d d4 e5 12 3e 3c 99 31 3e aa 25 e9 3d
       0.117934726 0.14345485 0.1734361 0.11384137
000160 1d 4c 25 3e 01 2b 12 3e 52 83 14 3e 09 86 0c 3e
       0.16142316 0.14274217 0.1450322 0.13723005
000170 6c 0d 23 3e 4d e3 3d 3e 82 96 03 3e ee dd 2d 3e
       0.15923089 0.1854374 0.12850383 0.1697919
000180 25 7b 26 3e 2e f7 14 3e 8e 8e f7 3d 9b 05 15 3e
       0.16257913 0.14547417 0.12087737 0.1455292
000190 7e b4 09 3e 9d e0 2a 3e 7a e3 15 3e 84 d8 0f 3e
       0.13447759 0.16687246 0.14637557 0.14047438
0001a0 09 7c 14 3e 3d e3 0a 3e 87 a8 11 3e 4d 82 07 3e
       0.1450044 0.13563247 0.14224444 0.132333
0001b0 50 c4 22 3e c8 bc c4 3d ab d5 18 3e e4 d0 20 3e
       0.158952 0.0960632 0.14925258 0.15704685
0001c0 40 74 1d 3e 2c 96 f0 3d f0 e7 33 3e af 34 ff 3d
       0.15376377 0.11747393 0.17568946 0.124612205
0001d0 ef fd f6 3d 14 0a 3a 3e 7d 68 32 3e 67 6b 06 3e
       0.12060153 0.18167907 0.17422672 0.13126908
0001e0 f4 dc 0a 3e 32 f8 64 3e 14 95 39 3e 4c 1c 1a 3e
       0.1356085 0.22360304 0.18123275 0.15049857
0001f0 ff 27 1b 3e 56 75 0a 3e 81 7a e3 3d 2e 77 ef 3d
       0.15151976 0.13521323 0.1110735 0.116926536

base_net.10.4.bias f4 [128]
000000 c1 f8 38 3e 88 6f e0 3c f1 7b 2f 3d 14 e3 d6 3c
       0.18063642 0.027396932 0.04284281 0.026231326
000010 e6 be 19 3e 5e bd 2c bd c3 bd 8d 3d 25 65 08 3e
       0.15014228 -0.042172782 0.0692096 0.13319834
000020 7f b1 fb 3d b7 b4 4f 3e 54 b0 ef bc 13 3a 41 bd
       0.12289714 0.20283781 -0.029258884 -0.047174525
000030 f3 24 6e 3d 15 38 f8 bd 4f 71 73 3d d5 22 2f bc
       0.058140706 -0.12120072 0.05943423 -0.010689457
000040 20 46 a2 ba 3b ca c4 bd 09 d2 2f 3e 2f 0c e0 be
       -0.0012380518 -0.09608885 0.17169966 -0.43759295
000050 e1 4b 8d 3e d0 67 b8 3d db 15 2e 3d 4d 00 ec 3c
       0.27596954 0.09004176 0.04250131 0.028808737
000060 86 8c d4 bd 44 a2 0b 3e b3 6b bd bb ba c5 ae be
       -0.10378365 0.13636118 -0.005780661 -0.34135228
000070 89 6e 72 3c f2 49 56 3c cc a4 1c 3d 88 18 1c 3e
       0.014796861 0.013079153 0.0382431 0.15243733
000080 67 5b 9b 3e fd 02 ba 3b 9f b8 f5 3b 4f 31 da bc
       0.30343172 0.0056766258 0.007498815 -0.02663484
000090 df 48 0f bb a9 b2 07 3e b5 10 2c 3c 7c d2 c4 bc
       -0.0021863503 0.13251747 0.01050203 -0.024026148
0000a0 09 34 26 3c 8b 61 63 3d c2 af 80 3d a2 8f 98 3d
       0.010144242 0.055512946 0.06283523 0.07449271
0000b0 9a ea ce 3c 1a f9 80 bd a0 a7 9b 3e 3b 26 f9 3d
       0.025258351 -0.06297512 0.30401325 0.12165495
0000c0 e4 20 c1 3d 09 54 08 3e 90 6d 40 3e 85 36 ba 3d
       0.094301015 0.13313307 0.18791795 0.0909243
0000d0 7c a3 1b bc 34 bd 1e 3e 13 85 7f be 2c 97 cd 3e
       -0.009499427 0.15501863 -0.24953108 0.40154397
0000e0 33 bd de 3c c7 77 29 be 4d bf ec 3d 6b a7 20 3e
       0.027189827 -0.16549598 0.11559925 0.15688865
0000f0 04 08 d1 3b 8a 6d 5e be c7 e9 6d 3e 96 d4 07 bb
       0.0063791294 -0.21721473 0.2323371 -0.0020726076
000100 ab 6e af 3d 4c 1a f0 3d 08 c7 17 3b 8e 50 3c 3e
       0.0856603 0.11723766 0.0023159403 0.18390104
000110 6b 05 b9 3c db 91 84 bd cd 10 ab 3d 62 59 3e 3d
       0.022585591 -0.06473132 0.08352814 0.04647196
000120 57 41 a5 3b 28 27 8a 3e d0 1c 98 3d b2 cc a2 3d
       0.0050431895 0.26983 0.074273705 0.07949199
000130 97 e9 02 bc d3 a1 2d 3e 80 34 a2 3c ff 72 d6 3c
       -0.0079902625 0.16956262 0.019800425 0.026177881
000140 29 fe bd 3d 46 44 3d 3e a9 5c b1 3c 39 d9 20 3d
       0.09276993 0.18483075 0.02165063 0.03926966
000150 62 6f 2f 3d c5 34 86 bd 61 91 0c 3d e2 4f 7d 3c
       0.042830832 -0.06553034 0.03431833 0.01546094
000160 31 f0 43 3e f0 68 f1 bb e1 65 1f 3d 9c 02 ac bb
       0.19134595 -0.007367246 0.03891552 -0.0052493345
000170 92 f0 c6 3c 69 3c 31 3d cb 08 8d 3d ad de ce bc
       0.024284635 0.043270502 0.06886443 -0.025252664
000180 42 a0 23 be c1 6b 39 bd 4b ac 5d 3d 96 8c c8 3c
       -0.15979102 -0.045268778 0.05411939 0.0244811
000190 fa 0e 0c 3d 98 71 c6 3e 55 05 ac 3d d8 45 4c 3c
       0.03419397 0.3875854 0.083994545 0.012467824
0001a0 8a 49 57 3d 15 a9 4e 3e e8 77 5b 3c 30 9a 0e bd
       0.052560367 0.20181687 0.013395287 -0.034815013
0001b0 57 a7 98 3b bc 34 80 3d d5 af ce bc ff 98 ef bd
       0.0046586203 0.06260058 -0.025230328 -0.116991036
0001c0 5e e2 8e 3c 6c d0 3a 3d 9e e4 b8 3e e7 b3 ca 3d
       0.017441925 0.045608923 0.3611192 0.09897595
0001d0 f3 f5 ff 3c a3 ff 22 3d 7e 86 c7 bb e4 7a b2 3c
       0.031245207 0.039794575 -0.0060890308 0.021787114
0001e0 7d ba 9d 3c 26 46 2d 3d 0e 34 55 3e 4d 40 8f 3e
       0.019253964 0.042303227 0.20820639 0.27978745
0001f0 74 91 96 3d 61 fa 9a bc 9d b9 17 3d 15 fa ab bd
       0.07351962 -0.018918218 0.03704225 -0.08397309

base_net.10.4.running_mean f4 [128]
000000 ba e2 8e bd 59 6b db bb 77 7f 97 ba 3f c4 91 3b
       -0.069768384 -0.0066961464 -0.0011558373 0.004448443
000010 50 3c f4 bd d2 b5 77 bc 58 56 b6 bd 63 df 9a bd
       -0.11925566 -0.015119033 -0.089031875 -0.07562139
000020 a0 9e fb bd a2 10 57 bd 10 0a 80 3c 4d 63 32 bd
       -0.12286115 -0.052506097 0.015629798 -0.04355173
000030 12 73 c1 bd f5 8c 86 bc 73 d9 19 3d 2f 9a 76 3b
       -0.09445776 -0.016424635 0.03756089 0.0037628522
000040 11 6f 36 bd d3 07 17 bd 29 7e f9 bd 19 06 ee bc
       -0.044539515 -0.036872696 -0.12182266 -0.029055642
000050 53 89 93 bd 16 d7 bf bd ee 44 5b bd 03 05 66 3c
       -0.07203927 -0.09367196 -0.053532533 0.014039281
000060 f6 b9 2c 3d 5b 93 44 be c4 21 16 3e 57 a9 d7 bc
       0.042169534 -0.19196837 0.14661318 -0.026325865
000070 f6 55 e1 3c 19 38 11 3d e0 2e 71 3d 1e 87 42 bd
       0.02750681 0.03545389 0.058882594 -0.04749214
000080 28 df 60 bd ee 5b 6b bd fc 75 22 bc 21 67 db 3c
       -0.05490032 -0.057460718 -0.009915825 0.026782574
000090 5e 2a 73 3c bf ea da bd a7 69 a6 bc 69 00 d0 bc
       0.014841644 -0.106893055 -0.02031405 -0.02539082
0000a0 5d 4c 10 3b 38 cc d5 bc fd 8e 8a 3b 5b a0 c9 bc
       0.0022018172 -0.026098356 0.0042284713 -0.024612596
0000b0 5b 3c 7b 3b a1 48 00 be b8 dd e0 bd 95 ff b4 bd
       0.0038335535 -0.12527706 -0.109797895 -0.08837811
0000c0 11 62 dc bd 6e 4e 35 be e1 de 1c be 47 e5 df bd
       -0.10760892 -0.177057 -0.15319397 -0.10932403
0000d0 c7 f8 15 bd 01 4c 9f bd 42 99 0e 3d dc 8f ca bd
       -0.036614206 -0.077781685 0.034814127 -0.0989072
0000e0 0c ba 63 bc c9 1e 06 3d c0 ab ab bd da 7e c2 bc
       -0.0138993375 0.032744203 -0.08382368 -0.023742128
0000f0 8e c8 97 bc 18 d7 ee bc 3b 04 c6 bd bd 80 e1 3a
       -0.01852825 -0.029155299 -0.09668776 0.0017204505
000100 35 89 ff bb 5b 85 d2 bd 21 80 29 bc 5d 16 de bd
       -0.007798339 -0.10279342 -0.01034549 -0.10844109
000110 f4 a8 ec bc 3c ff 1c 3d cc 20 4c bc 2f 23 55 bc
       -0.028889157 0.038329348 -0.012458991 -0.013008877
000120 19 95 56 bb 1f b2 8a bd a4 be eb bc dc 2e 26 3c
       -0.0032742678 -0.06772255 -0.028777428 0.010143008
000130 6c 01 09 bd 14 47 72 bd b7 29 c7 bc 76 8f fd 3c
       -0.03344862 -0.059149817 -0.024311883 0.030952197
000140 f5 70 30 bd ec 06 a6 bd 02 17 03 bd 4d 76 a8 bc
       -0.043076474 -0.08106789 -0.032004364 -0.020564223
000150 39 77 53 3e ab fd 15 3d 82 9c 81 3b 55 fc 36 bd
       0.20650949 0.03661887 0.0039554248 -0.044674236
000160 91 10 b2 bd bb 76 91 bc 47 2f 47 3a a7 0a 17 bd
       -0.08694566 -0.01775681 0.00075982924 -0.036875393
000170 f8 16 95 3d b3 5c 45 3a 2a 7c fb bd 4e cd 67 bd
       0.072797716 0.0007528767 -0.12279542 -0.05659228
000180 d6 fa b4 3d 31 10 33 bd c8 86 32 bd f3 5d 81 bd
       0.08836906 -0.043716613 -0.04358557 -0.063167475
000190 55 3a 12 bd a0 eb 23 be 62 1b e7 bd 16 1b bf 3a
       -0.03570016 -0.16007853 -0.1128452 0.0014580216
0001a0 aa 9a 8d bd de b4 a5 bd 85 87 34 bc 05 56 17 bd
       -0.069142655 -0.08091138 -0.0110186385 -0.03694727
0001b0 39 86 6c 3c e8 63 89 3d c5 9e b4 bc 70 c9 ec bb
       0.014436298 0.06708509 -0.022048363 -0.0072261617
0001c0 20 6e af bb 3b a7 b8 bd 9a 69 b2 bd 4c 29 6f bd
       -0.005353704 -0.09016272 -0.08711548 -0.058388993
0001d0 5b b9 0e bd e9 cd 8d bd ec f6 02 ba 5f 87 4f bc
       -0.034844737 -0.0692404 -0.00049959007 -0.012666552
0001e0 97 ec 45 3c e5 b5 0c 3d 75 01 b4 bd 20 14 08 be
       0.012080333 0.034353156 -0.087893404 -0.13288927
0001f0 ae 02 11 be c8 13 56 bd 15 c2 85 bd 9d 6e 94 bc
       -0.14161178 -0.05226496 -0.06531159 -0.01811915

base_net.10.4.running_var f4 [128]
000000 aa 89 89 3a 89 09 57 3a 42 5a 8f 3a 96 a9 0b 3a
       0.0010493298 0.000820302 0.0010936933 0.00053276995
000010 82 ed 2c 3b 28 1c 5f 3a 30 59 6e 3a 8c 63 8d 3a
       0.0026386683 0.00085109705 0.00090922695 0.0010787114
000020 16 c3 13 3b a5 ca a4 3a e9 a3 47 3a c3 0c 97 3a
       0.00225467 0.00125726 0.0007615672 0.0011524189
000030 ff 29 91 3a b9 fd 97 3a e3 e7 38 3a ee e9 5d 3a
       0.0011075138 0.0011596001 0.0007053597 0.0008465339
000040 0a 59 80 3a c1 0b 8a 3a 42 0f 17 3b f9 b5 aa 3b
       0.0009792161 0.0010532067 0.0023049866 0.005209681
000050 70 f7 0d 3b 27 55 e6 3a c5 02 76 3a 8e 6b 5d 3a
       0.0021662377 0.0017572985 0.0009384568 0.0008446508
000060 82 20 b4 3a 99 e6 a0 3b e3 fa c2 3a f3 67 2f 3b
       0.0013742598 0.004910302 0.0014875795 0.002676484
000070 97 96 58 3a 3b 38 aa 3a 0c 98 6d 3a 85 ba d7 3a
       0.0008262186 0.0012986729 0.0009063489 0.0016458785
000080 13 91 41 3a 94 2d 4d 3a dd b9 8c 3a 29 01 5d 3a
       0.00073839835 0.0007826921 0.0010736544 0.0008430654
000090 1c 49 91 3a 4d 03 9e 3a 12 7e 45 3a b3 33 e9 3a
       0.001108441 0.0012055427 0.00075337396 0.0017791897
0000a0 a4 f8 b7 3a e7 4c 97 3a 12 bc 64 3a 99 27 36 3a
       0.0014035893 0.0011543304 0.00087255344 0.00069486495
0000b0 7f 08 2e 3a 57 f6 d1 3a cd 51 3f 3b 09 e7 88 3a
       0.0006638839 0.001601885 0.0029193044 0.001044483
0000c0 01 be cc 3a dc 9a 83 3b cf e2 4e 3b 45 1d cc 3a
       0.001562059 0.0040162634 0.0031568294 0.0015572688
0000d0 58 c8 54 3a 2d 02 81 3a 7b 19 1b 3b 3d 45 87 3b
       0.0008117012 0.0009842567 0.002366631 0.004128127
0000e0 12 a2 b5 3a e4 99 09 3b dc d1 e5 3a 5e e0 21 3a
       0.0013857505 0.0020996267 0.0017533856 0.0006175096
0000f0 20 29 63 3a b4 39 8f 3a 2d 27 10 3b 97 f6 d0 3a
       0.0008665491 0.0010927231 0.0021996007 0.001594263
000100 6e 49 8b 3a 54 6a a4 3a d8 9a 98 3a 5a e0 b6 3a
       0.0010626742 0.0012543895 0.0011642827 0.001395236
000110 88 fc d5 3a b6 3e c7 3a 64 e4 7c 3a 4f db 07 3a
       0.001632587 0.0015201184 0.000964707 0.0005182521
000120 5c 12 b8 3a f5 9d 09 3b c8 a9 34 3a 46 cd 35 3a
       0.0014043557 0.002099869 0.00068917545 0.000693519
000130 33 40 3a 3a 71 0a a4 3a f1 d9 13 3b 1e 10 35 3a
       0.00071049033 0.0012515319 0.0022560323 0.00069070037
000140 8a f6 24 3a 1b 25 c6 3a 11 d0 6f 3a e4 49 28 3a
       0.00062928407 0.001511726 0.0009148131 0.0006419702
000150 b8 28 d1 3b 10 b8 20 3a 98 2a 5a 3a c0 a4 12 3b
       0.006383028 0.0006130943 0.0008322387 0.002237603
000160 d3 96 e3 3a 56 88 16 3a 60 a0 14 3a 23 a2 af 3a
       0.0017363675 0.00057423615 0.00056696497 0.0013399761
000170 16 67 81 3a 01 b1 85 3a d4 c0 03 3b 2f 11 f1 3a
       0.0009872641 0.0010199846 0.0020103948 0.0018391962
000180 5d f2 bc 3a 53 05 89 3a 76 21 ba 3a 4c e5 a7 3a
       0.0014415492 0.0010453857 0.0014200646 0.0012809425
000190 de ec 83 3a b7 4b 85 3b 7f ec d8 3a 2c f3 0e 3a
       0.0010065099 0.004067864 0.0016549974 0.00054531056
0001a0 53 25 7e 3a 6a eb e0 3a 0e 44 5b 3a 17 ba 77 3a
       0.0009694893 0.0017160003 0.0008364328 0.0009450032
0001b0 22 3c 5a 3a e4 24 89 3a 36 dc 4a 3a 21 d6 03 3b
       0.00083250005 0.0010463265 0.00077385025 0.0020116644
0001c0 fe cb 01 3a 9e 8f 92 3a 4c 6d 13 3b 5e db c8 3a
       0.00049513567 0.0011181717 0.0022495566 0.0015324166
0001d0 06 80 c4 3a 6b 1c 90 3a 58 b3 83 3a 14 d1 05 3a
       0.0014991767 0.0010994797 0.0010047955 0.00051047024
0001e0 ea 17 ee 3a 30 c4 5c 3a 4e ec 1e 3b 19 c0 3c 3b
       0.0018165086 0.0008421568 0.0024249735 0.0028801023
0001f0 95 43 ab 3a 12 70 c0 3a b7 47 aa 3a 9a e0 c5 3a
       0.0013066406 0.0014681837 0.0012991343 0.0015096844

base_net.10.4.weight f4 [128]
000000 9c 46 0d 3f 5d 77 f4 3d 61 d9 84 3d d6 85 09 3e
       0.55185866 0.11936829 0.06486774 0.1342996
000010 62 1b 1d 3f 00 e2 ca 3d 10 35 e9 3e f3 f8 f6 3e
       0.6136991 0.09906387 0.45548296 0.48236808
000020 e5 b6 0c 3f ea 0f f7 3e 11 ad 00 3e 38 f5 a8 3e
       0.54966575 0.4825433 0.1256602 0.32999587
000030 1a fe ea 3e 85 cb 09 3f b0 09 95 3d a7 27 a5 3d
       0.4589699 0.5382617 0.07277238 0.08064204
000040 74 91 a1 3d 9a f4 ce 3e 2a 65 08 3f a7 54 32 3f
       0.07889071 0.4042099 0.53279364 0.6966042
000050 53 4a 06 3f 05 42 af 3e a8 b1 a3 3d e3 81 ba 3d
       0.5245716 0.34230056 0.079928696 0.09106805
000060 90 b8 04 3f ef 71 31 3f 85 d8 09 3f 8f 4d 16 3f
       0.5184412 0.69314474 0.5384601 0.58712095
000070 d3 ec 6a 3e 83 24 ca 3d ee 1d 76 3e eb e4 05 3f
       0.22941904 0.09870245 0.24034855 0.52302426
000080 86 0d 94 3e 62 d2 b2 3d 9f 66 ad 3d fe e3 aa 3d
       0.28916568 0.087315336 0.08466839 0.08344267
000090 a6 3b be 3d 76 a3 06 3f 78 04 a8 3d e0 bb b4 3d
       0.09288721 0.5259317 0.08203977 0.08824897
0000a0 82 5f cb 3d bc 2f c4 3d 24 10 41 3e 5e 69 6f 3e
       0.09930326 0.09579417 0.18853813 0.23380038
0000b0 e6 4f de 3d 2b f9 18 3e e0 97 25 3f ee aa 0b 3f
       0.10855083 0.149388 0.6468487 0.54557693
0000c0 b7 45 1d 3f 5f 5a 31 3f 63 88 1a 3f bf 81 10 3f
       0.614345 0.6927852 0.6036436 0.56447977
0000d0 11 f1 ba 3d 1c 37 f9 3e a8 6c 12 3f 7d 21 0e 3f
       0.09128011 0.48674858 0.57197046 0.5551985
0000e0 41 c7 b0 3d 00 3d 18 3f 3b c9 e4 3e 30 21 f4 3e
       0.08631755 0.5946808 0.44684777 0.4768157
0000f0 ba 53 ee 3d be 1b f8 3e fc c2 07 3f a4 e6 0f 3e
       0.11637063 0.48458666 0.530319 0.14052826
000100 76 8c c2 3e 80 85 08 3f 5c c5 b3 3d 89 39 14 3f
       0.37997788 0.53328705 0.08777878 0.5790029
000110 eb 8a 70 3e 83 b7 0e 3f c6 9c 19 3e 64 d7 35 3e
       0.23490493 0.55748767 0.1500121 0.17757946
000120 80 7e da 3d 63 64 ff 3e 6b e1 53 3e bd 85 5f 3e
       0.10668659 0.49881276 0.20691459 0.21828361
000130 fc 9f 9c 3d eb 8b b3 3e 11 6b d2 3d fb 71 a4 3d
       0.07647702 0.35067686 0.102743275 0.080295525
000140 99 ca 91 3e c7 52 d2 3e 05 47 00 3e 62 d7 81 3e
       0.28474882 0.4107878 0.12527092 0.25359637
000150 81 ad 4e 3f 56 41 b1 3e 2b f6 94 3d 5d 8d cb 3d
       0.80733496 0.3462016 0.07273515 0.09939072
000160 9f 47 f1 3e e1 e0 e0 3d f0 b6 89 3d 76 73 d2 3d
       0.47124955 0.10980392 0.06724346 0.10275929
000170 e5 2b 51 3e b1 7c 9b 3d ee bf 20 3f 07 55 d8 3d
       0.204269 0.075921424 0.6279286 0.10563093
000180 51 18 d6 3e 6b 28 33 3e b9 4a da 3d 63 cb 4b 3e
       0.41815427 0.17495887 0.106587835 0.19901805
000190 5e 02 9f 3d 2a 2a 30 3f bd 36 d8 3e 11 7c 9e 3d
       0.077641234 0.6881434 0.42229262 0.077385075
0001a0 79 66 f1 3d 61 02 e0 3e 4f 6f c1 3d dc 5a 86 3d
       0.11787123 0.43751815 0.094450586 0.06560299
0001b0 24 35 ea 3d a6 08 89 3e 64 f0 96 3d 97 ed 0e 3f
       0.11435917 0.2676441 0.073700696 0.55831283
0001c0 0e d3 a2 3d 3a 32 1d 3f 08 95 0b 3f e4 8e c1 3e
       0.07950412 0.61404765 0.5452428 0.3780433
0001d0 d3 54 b3 3d 62 01 9d 3d b9 ce 34 3e b1 1f a7 3d
       0.08756413 0.076662794 0.17656983 0.081603415
0001e0 bb b8 bd 3d fe 1e 9e 3d f5 27 10 3f ba 52 0f 3f
       0.0926375 0.07720755 0.5631097 0.55985606
0001f0 e0 4d e2 3e 51 8d a8 3d fd 19 cf 3d b3 43 fa 3e
       0.4420004 0.08230079 0.10112379 0.48879775

base_net.11.1.bias f4 [128]
000000 b4 87 0d bc cc 20 90 3d 8b 8d 63 3c d3 ae 0d 3d
       -0.008638311 0.070375055 0.013888727 0.034590553
000010 cf 36 85 bd d7 7c 55 3c 0f dc e5 bb 7d 08 f5 bb
       -0.065045945 0.013030252 -0.0070147584 -0.0074778185
000020 e3 75 0f bd 30 94 2f bd d0 d8 6d bc 73 bf 17 bd
       -0.035024535 -0.042865932 -0.014517024 -0.037047815
000030 79 5c 3a bd 4d 7b ac 3c 74 89 2d 3d b2 78 86 3c
       -0.045498345 0.021054888 0.042367414 0.016414974
000040 a6 22 20 3d 1d a6 3b bd 28 ad 43 bd 46 5b 0c bd
       0.039095543 -0.045812715 -0.047772557 -0.034266733
000050 6d c2 ee 3c bd e7 61 bd fe b2 2b bd 13 0c d2 3c
       0.029145444 -0.055152643 -0.041918747 0.025640523
000060 d6 77 b0 bd 4b cc 39 bc e1 3b d1 3c 9f a5 ef 3d
       -0.08616607 -0.011340211 0.025541248 0.117015116
000070 81 57 1d 3d c3 48 4c bc f3 48 9c bb 43 7e 39 3d
       0.03841353 -0.01246852 -0.0047694384 0.04528643
000080 df e1 c5 3d 77 4f 07 bd 48 cf 98 bc a1 c5 c5 3b
       0.09662222 -0.033034768 -0.018653527 0.006035522
000090 ca 43 ab bb a9 a0 29 bc 47 4c b0 3c e8 6d 7f bd
       -0.005226587 -0.010353246 0.021520747 -0.062360674
0000a0 a7 21 62 bd 16 68 c8 3c 15 7e 4e 3c 03 1e ec 3c
       -0.055207875 0.024463695 0.0126033025 0.028822904
0000b0 30 7f 9a bc bf 1e 8c bd 9d 66 84 bc b1 ba 76 3d
       -0.018859476 -0.06841802 -0.016162211 0.060236637
0000c0 a4 9a 77 bd 2d 86 1c bd 06 d8 7c bc 04 df 5d 3d
       -0.06045021 -0.038213897 -0.015432363 0.054167762
0000d0 b8 bc 42 3c 2b 1c 29 3d 60 fb 4d bd 3f cd 2a 3c
       0.011885814 0.04128663 -0.050288558 0.010424911
0000e0 4c 4e cc 3b 99 55 08 3d 17 1a 43 bc 49 7c 10 3b
       0.0062349197 0.033284757 -0.011908076 0.0022046736
0000f0 7e 2f 50 ba 1b 0c 21 3d c6 7b 0a bc e5 b9 33 bd
       -0.0007941647 0.039318185 -0.008452361 -0.043878455
000100 3c dc 25 bd f9 e2 07 3d 36 a1 28 3d 44 7b 64 3d
       -0.040493235 0.033175442 0.041169368 0.055781618
000110 12 c9 d8 bd 47 e0 46 bb 57 1a 55 3d 28 2f ba 3c
       -0.10585226 -0.0030346082 0.052027073 0.022727564
000120 db 67 1a bd 2c d8 6f 3d 91 14 70 3d e6 1b 46 3d
       -0.0376967 0.058555767 0.058613364 0.04836645
000130 f5 6e e3 bc 47 00 93 3b c3 b9 f8 bd a6 43 95 3c
       -0.02776287 0.004486117 -0.12144806 0.018220734
000140 f7 49 41 bc 81 35 6f 3c dd 82 8b 3d 6b 83 96 3d
       -0.01179742 0.014600159 0.068120696 0.07349285
000150 ed 6b d7 3c 09 75 2e ba 5e 52 df bb 92 17 b0 bd
       0.02629658 -0.0006655013 -0.006815239 -0.08598246
000160 a8 e4 3a 3d 9b 36 ea 3c 92 ca 32 3d c0 e6 bb 3c
       0.04562822 0.028590491 0.043650217 0.022937179
000170 12 ec 4a bc 59 10 90 bb 1c 25 77 bd 11 ca 8c bd
       -0.012385385 -0.00439648 -0.060338125 -0.068744786
000180 4a 03 d1 3d 8e cc 2a 3d 15 4d 2f 3b 81 48 dc 3a
       0.102057055 0.041698985 0.0026748825 0.0016806276
000190 4b 0c 30 bd 8a 16 c5 3c 5c cb d9 bd 56 2b 86 3d
       -0.042980473 0.024058599 -0.10634491 0.065512344
0001a0 4d 21 f4 bc 4b b6 d2 bb 84 39 86 3d 54 5e 53 bd
       -0.029801035 -0.0064304224 0.06553939 -0.05160363
0001b0 f5 d6 60 bc 13 73 18 3c 64 c5 b7 3c 8f 69 b9 3b
       -0.013723125 0.00930478 0.02243299 0.0056583355
0001c0 c9 35 c6 3c 76 77 42 3d a7 d3 9f 3b 08 82 7f bc
       0.024195569 0.047477208 0.004877526 -0.015594967
0001d0 8c ba 62 bd 27 80 86 3c 56 76 5c 3c 0a eb af 3d
       -0.055353686 0.01641853 0.013455948 0.08589752
0001e0 07 6c 5d bd e1 47 b2 3d 7f 82 18 3d 06 4d 49 bd
       -0.0540581 0.08705116 0.037233826 -0.04914572
0001f0 40 d9 9b bd dc b5 0b bd 36 db 14 3d e6 4c f5 bb
       -0.076097965 -0.03410898 0.03634187 -0.0074859736

base_net.11.1.running_mean f4 [128]
000000 f0 e1 8a 3c 4e f6 7d bc 3f 77 2a 3c 32 5b 2b bc
       0.016953439 -0.015500618 0.010404407 -0.010458754
000010 44 08 81 3d 18 83 e8 ba fc 1d 2d bb 15 60 17 3d
       0.06300405 -0.0017739264 -0.0026415577 0.036956865
000020 a3 76 6a 3d 5b c1 cf 3c 5c dc 69 3b 63 05 17 3d
       0.057242047 0.025360754 0.0035684323 0.03687037
000030 c2 66 83 3c 75 39 28 bc b3 0d f2 3a 3b 7e f0 ba
       0.01604021 -0.010267605 0.0018467217 -0.0018348166
000040 34 09 ea 3b 7a 2d 3a 3c e5 ee da 3d 3b 23 0a 3d
       0.0071422104 0.0113633815 0.10690097 0.033725005
000050 26 38 36 3d 04 04 56 3d de 59 87 ba 89 b4 a4 bb
       0.04448714 0.052249923 -0.0010326465 -0.0050264043
000060 0a 8c 32 3d 81 3b c5 ba 89 82 8c 3c 55 f9 a3 bc
       0.043590583 -0.0015047641 0.017152088 -0.020016352
000070 51 54 d2 3a 4a df 15 3c 27 68 9f 3c 2c b8 de bc
       0.0016046857 0.009147475 0.019458843 -0.02718743
000080 4f a9 20 bd dc 36 fd 3a 49 13 d5 3b 95 2d 1e 3b
       -0.039223965 0.0019318718 0.006502543 0.0024136056
000090 33 2c a0 bb 85 1b 18 3c be f8 d7 39 2a ae f6 3b
       -0.0048880815 0.009283905 0.00041193323 0.007528086
0000a0 69 23 16 3c 91 a4 83 3c 8b 1b 61 3c a2 82 ac bc
       0.009163716 0.016069682 0.013739477 -0.021058384
0000b0 e5 8d 62 ba e3 2f 66 3c de 84 e9 3c 26 92 4e bc
       -0.000864236 0.014049503 0.028505739 -0.012608087
0000c0 1f 61 86 3c 94 28 65 3d 70 a1 42 bb ce 21 0e bd
       0.016403733 0.0559469 -0.0029698275 -0.034700207
0000d0 70 e6 0b 3c 91 0e e3 bc 60 fb 46 3d 92 72 03 3d
       0.008538827 -0.027716907 0.048579574 0.032091685
0000e0 70 86 a6 bb 9b db c8 ba ae d9 2c 3d 2b ce 4d bc
       -0.005081944 -0.0015324237 0.042199783 -0.012561361
0000f0 ca d3 e5 3a cc 07 76 bc 55 59 cc bc 55 79 d0 ba
       0.0017534432 -0.015016507 -0.02494494 -0.00159053
000100 a6 7f 2e 3d 66 ef 02 bd c7 80 5f bb 97 9b 4f bd
       0.042602204 -0.03196659 -0.0034103857 -0.05068549
000110 11 7e 13 3d cd ae 45 ba 6d ca be bc 49 87 dd b9
       0.0360089 -0.0007541001 -0.023289884 -0.000422532
000120 3f 07 8a bb e4 01 64 bd bf a1 54 bc 8d c2 de bc
       -0.0042122896 -0.055665866 -0.012978016 -0.027192378
000130 7f 69 cf 3b 1d fc 1e 3c c9 45 a7 3c 2d 29 74 3b
       0.006329715 0.009703663 0.020419018 0.0037255988
000140 0b a4 4b 3c f0 df 65 3d a9 a4 0d ba b0 a1 f8 bb
       0.012429248 0.056121767 -0.00054032594 -0.007587634
000150 65 3c 04 bd 2b f6 fe 3b 9e ec 1f 3b 6b 56 88 3c
       -0.03228416 0.0077808104 0.002440251 0.01664277
000160 a8 26 11 bd 72 b7 92 bb 99 80 df 3a 73 17 ae ba
       -0.035437256 -0.004477435 0.0017051875 -0.0013282135
000170 a4 3e 7f 3c bf 22 b7 3b c6 2a 9e 3d d7 85 37 3c
       0.0155788995 0.005588859 0.07723002 0.0112013435
000180 4d e2 ab bc 94 3d 5e bc 6b 72 a5 bc c8 11 96 3c
       -0.020981932 -0.013564486 -0.02019616 0.018319026
000190 94 21 46 3c 40 05 d5 3c ca 2b 81 3d 94 ac 9b bb
       0.012092967 0.02600348 0.0630718 -0.0047507975
0001a0 13 a9 8d 3c 1c 22 e3 3a 69 43 84 bb 60 4d d3 3a
       0.017292535 0.0017328891 -0.004036356 0.0016121082
0001b0 9c 50 9e 3b d1 05 81 3c 83 50 6a 3b 60 5e 0a 3d
       0.0048313867 0.015749844 0.0035753555 0.03378141
0001c0 0a da 0f bb 2e a9 f7 bc 3c 8c 9e 3d 13 d4 29 3c
       -0.002195003 -0.030232038 0.07741591 0.010365504
0001d0 e1 53 84 3c f8 5e 39 3c 6f 24 c5 38 a6 c1 0a bb
       0.016153278 0.011314146 9.400478e-05 -0.0021172552
0001e0 88 de 8d 3c 9a 81 26 bc 0a 5e 8d 3c bd f8 70 3d
       0.017318025 -0.010162735 0.017256755 0.058830965
0001f0 92 86 05 3d 02 16 8a 3b 23 63 49 3b ce 8b 98 3c
       0.03259904 0.0042140493 0.0030729256 0.018621352

base_net.11.1.running_var f4 [128]
000000 84 e1 af 3a 5d c8 3b 39 55 0c 98 38 ed 55 e4 38
       0.0013418649 0.00017908351 7.250222e-05 0.00010887892
000010 dd ce eb 3b 4a ee 51 38 ee 3d 01 3b f1 77 20 3b
       0.007196291 5.0051407e-05 0.001972075 0.0024485553
000020 c4 8b ad 3b 0a fc ee 3a 5a 17 b3 38 6d 56 00 3b
       0.0052962024 0.0018233072 8.539735e-05 0.0019582764
000030 15 94 f4 3a b5 0c 5d 3a 31 12 a5 38 fa 73 55 38
       0.0018659855 0.00084323745 7.8712015e-05 5.089117e-05
000040 44 6e 8d 38 41 56 d0 3a 6d b0 d8 3b 4e 19 91 3b
       6.7439425e-05 0.0015894846 0.0066128285 0.0044280654
000050 72 6e 1e 3b af d6 59 3b 0c da 99 38 d8 5d 10 39
       0.0024174717 0.0033239534 7.336223e-05 0.0001376787
000060 0d 2c 90 3b 28 e4 b6 3b dd e3 dc 3a 9d 3b aa 3a
       0.0043997825 0.0055813976 0.0016852577 0.0012987737
000070 fe f2 02 3a e9 a5 1f 39 09 08 95 3a 3d d0 b4 3a
       0.0004995315 0.00015225228 0.0011370193 0.001379497
000080 c4 0e 80 3a dd bb b1 38 18 90 ab 38 13 20 19 38
       0.0009770025 8.47501e-05 8.180755e-05 3.6507914e-05
000090 7c 31 11 39 ef 0a 1d 3b d0 27 5d 38 ea 1d c0 38
       0.00013846712 0.0023962816 5.2727584e-05 9.1608454e-05
0000a0 44 e9 2a 39 41 aa 46 39 1e b3 c2 39 65 1b 73 3a
       0.00016299362 0.00018946176 0.00037136016 0.00092737965
0000b0 d5 ef 24 39 47 32 c4 39 93 78 98 3b 2a 2c 50 3b
       0.00015729603 0.00037421493 0.0046530454 0.0031764605
0000c0 72 46 93 3b 41 87 dd 3b b9 17 50 3b 7a 7a ca 3a
       0.0044944817 0.0067605083 0.003175242 0.0015447878
0000d0 ea bf d0 38 62 3e 82 3a ac 65 e5 3b d7 22 9a 3a
       9.95396e-05 0.0009936804 0.0070006456 0.0011759651
0000e0 d8 48 d1 38 33 82 90 3a 6e d7 36 3b 6b 22 fc 3a
       9.979465e-05 0.001102513 0.0027899402 0.0019236332
0000f0 94 de 24 39 be 57 62 3a 01 50 3d 3b db 51 6b 39
       0.00015723176 0.00086342904 0.0028886797 0.0002244184
000100 82 d3 44 3b 9d 88 ca 3b d7 7c 02 39 83 b3 0f 3b
       0.0030033295 0.0061808364 0.00012444273 0.0021927066
000110 3f 2e b5 3a 6a 49 ac 3a 97 f7 a1 39 38 50 4c 39
       0.0013822987 0.0013144438 0.00030892782 0.0001948484
000120 e8 fd e9 39 14 d7 00 3b c5 a6 7e 39 1c 97 2b 3a
       0.00044630398 0.0019659447 0.00024285454 0.00065456494
000130 e9 88 5e 38 4f 41 80 3a 52 16 ab 39 49 f1 43 38
       5.3056432e-05 0.0009785088 0.00032632292 4.6716337e-05
000140 d7 e6 bc 39 cd bc 1d 3b 12 6f 44 39 5c 45 2d 3a
       0.00036030143 0.0024068833 0.00018733394 0.00066097616
000150 72 f2 14 3b bf 10 b5 39 f1 4d 68 38 8e 31 9a 39
       0.0022727516 0.00034535487 5.53857e-05 0.0002941009
000160 83 1b b4 3a ac 30 8a 38 53 43 3e 38 97 cc b7 38
       0.0013741109 6.5894186e-05 4.536223e-05 8.764228e-05
000170 cc f2 c9 39 2a 9e f7 38 6c ed 14 3c 99 bd 20 39
       0.00038518605 0.00011807338 0.009089809 0.0001532942
000180 90 a9 bc 3a c3 be 2f 3a d1 23 23 39 4d e8 24 3a
       0.0014393795 0.0006704146 0.00015558234 0.0006290719
000190 ff 5e 15 39 c1 05 9c 3b 06 63 94 3b 58 82 81 38
       0.00014245136 0.004761428 0.004528406 6.175478e-05
0001a0 8f 50 88 39 65 db 86 3a 60 72 87 38 18 28 f9 37
       0.00025999962 0.0010288773 6.458606e-05 2.9701783e-05
0001b0 38 0a d3 38 6b f3 5c 3a 1c 82 d1 37 39 cb 09 3b
       0.000100631674 0.0008428606 2.4975328e-05 0.002102567
0001c0 06 15 66 38 75 e3 7f 3b fb 6d 73 3b 04 41 db 3a
       5.4855853e-05 0.0039045487 0.003714441 0.001672775
0001d0 7d e8 b9 39 19 ae fc 38 e5 b6 97 39 27 bf fd 37
       0.00035459167 0.000120487246 0.0002893723 3.0248963e-05
0001e0 25 78 49 39 18 64 90 38 fd 88 13 3b 2f b3 b3 3b
       0.00019213611 6.885099e-05 0.0022512071 0.005484007
0001f0 ab b8 3a 3b 78 dc a5 38 ec 4b 9e 39 d9 7e 04 3b
       0.0028491418 7.9088786e-05 0.00030192675 0.0020217209

base_net.11.1.weight f4 [128]
000000 5e 8e d4 3d 9c dc 01 3e 72 76 f3 3d a5 d3 ed 3d
       0.10378717 0.12681812 0.11887826 0.116126336
000010 20 36 97 3d 62 27 d6 3d 73 9d e2 3d 49 e3 a5 3d
       0.073833704 0.104567304 0.11065187 0.08099992
000020 af 1a ac 3d 77 84 e4 3d d1 1a c1 3d cc 9e f8 3d
       0.08403527 0.11158078 0.09428943 0.12139663
000030 cf f1 ca 3d c6 c7 d8 3d b2 c8 f3 3d e4 c5 03 3e
       0.099094026 0.10584979 0.11903514 0.12868458
000040 4f 69 e2 3d 0b 4d ba 3d aa 86 be 3d 31 84 ab 3d
       0.11055242 0.09096726 0.09303029 0.08374823
000050 14 5e d4 3d 7e 78 d9 3d 6a f2 01 3e 38 b4 01 3e
       0.103695065 0.10618685 0.1269013 0.12666404
000060 82 2b a4 3d fa ee bd 3d 14 2c 96 3d 5d a8 f2 3d
       0.08016111 0.09274097 0.07332626 0.11848519
000070 a2 e5 10 3e 6b 45 ec 3d 55 d0 92 3d 0a 86 c5 3d
       0.14150098 0.11536678 0.071686424 0.096447065
000080 ad d9 75 3d da 89 d2 3d b7 14 ca 3d 87 78 e2 3d
       0.060022045 0.10280199 0.09867232 0.11058145
000090 d8 21 ed 3d 8e 3e b9 3d 8e 1b d8 3d 8e a4 b5 3d
       0.11578721 0.090451345 0.10552131 0.08869277
0000a0 24 69 e6 3d 64 c8 e1 3d 54 2e d5 3d 2b 54 f3 3d
       0.11250523 0.110245496 0.10409227 0.11881288
0000b0 7a 2f db 3d 25 fe c3 3d 5b 38 e1 3d 2a 4a ae 3d
       0.10702415 0.095699586 0.10997077 0.085102394
0000c0 39 a2 a2 3d a8 33 98 3d af 0a a8 3d 96 6d bd 3d
       0.07941098 0.07431728 0.08205163 0.092494175
0000d0 64 1a ce 3d dd 7e d9 3d 28 85 a7 3d ff 74 bb 3d
       0.10063627 0.106199004 0.081796944 0.091531746
0000e0 ed 1a 18 3e 28 66 d3 3d da e3 bb 3d 84 74 ba 3d
       0.14854021 0.10322219 0.091743186 0.09104255
0000f0 12 6e dd 3d b0 74 f7 3d ab 8a f3 3d 87 c9 f4 3d
       0.1081201 0.12082803 0.11891683 0.11952501
000100 e0 18 ae 3d 7e b3 bd 3d de a6 c3 3d a8 6e dc 3d
       0.08500838 0.09262751 0.09553312 0.107632935
000110 32 3e c6 3d 84 7a d7 3d 1b a9 15 3e 04 af e6 3d
       0.096798316 0.10521415 0.1461529 0.1126385
000120 84 62 18 3e d1 28 df 3d d5 1b eb 3d 9e 2a 20 3e
       0.1488133 0.10896457 0.11479918 0.15641257
000130 07 c9 c8 3d 5d c5 c2 3d 39 39 0a 3e 91 4f d5 3d
       0.09803968 0.095103 0.13498391 0.10415567
000140 e0 b9 ef 3d 95 89 f8 3d 4d c6 e6 3d 2c 6c a3 3d
       0.11705375 0.12135617 0.112682916 0.079796165
000150 c0 7f fa 3d 7b a2 e4 3d 41 22 e8 3d 1f 5c f3 3d
       0.12231398 0.11163803 0.113346584 0.11882805
000160 cb 29 d1 3d ac 27 e4 3d 61 1d e1 3d 54 3f c1 3d
       0.102130495 0.11140379 0.10991932 0.09435907
000170 22 ec de 3d ff 88 30 3e 46 8b af 3d 88 ae ba 3d
       0.108848825 0.1723976 0.08571486 0.091153204
000180 a1 c3 16 3e f6 a4 a9 3e bc 57 0a 3e 4c f6 b5 3d
       0.14723064 0.33133668 0.1351003 0.08884868
000190 ae e5 c1 3d d5 15 ad 3d ea 02 c0 3d 0e 1d ef 3d
       0.09467636 0.0845143 0.09375556 0.116754636
0001a0 39 ac d2 3d 72 de cc 3d d4 9d 00 3e 06 15 be 3d
       0.10286755 0.100033656 0.12560207 0.09281354
0001b0 fe 07 03 3e bc c2 da 3d 8c 56 e2 3d 70 6f b7 3d
       0.12796018 0.10681674 0.11051664 0.08956802
0001c0 21 61 e5 3d 0c a8 d7 3d 1f 1b e6 3d 9b df c4 3d
       0.112001665 0.10530099 0.11235642 0.09612962
0001d0 b6 66 04 3e 2a 59 00 3e 79 25 b4 3d 64 a9 f4 3d
       0.12929806 0.12534013 0.0879621 0.11946371
0001e0 ce 1d f5 3d 31 ac 0b 3e 7c e9 d8 3d 30 27 db 3d
       0.119685754 0.13639905 0.105914086 0.10700834
0001f0 8d 79 a2 3d be 09 cc 3d a8 e4 f9 3d 39 bc d6 3d
       0.0793334 0.09962796 0.12201816 0.104851194
